…
W1010 04:09:49.137142  1480 deprecation.py:323] From C:\Users\stnu2\Anaconda3\envs\kuzushiji\lib\site-packages\tensorflow\python\ops\math_grad.py:1205: add_dispatch_support.<locals>.wrapper (from tensorflow.python.ops.array_ops) is deprecated and will be removed in a future version.
Instructions for updating:
Use tf.where in 2.0, which has the same broadcast rule as np.where
pseudo labeling
 recog image 4150/4150
pseudo label num = 468780 / 929720
 read image 3881/3104
 read image 3876/777
__________________________________________________________________________________________________
Layer (type)                    Output Shape         Param #     Connected to
==================================================================================================
input_1 (InputLayer)            (None, 96, 96, 1)    0
__________________________________________________________________________________________________
conv2d_1 (Conv2D)               (None, 48, 48, 48)   480         input_1[0][0]
__________________________________________________________________________________________________
batch_normalization_1 (BatchNor (None, 48, 48, 48)   192         conv2d_1[0][0]
__________________________________________________________________________________________________
activation_1 (Activation)       (None, 48, 48, 48)   0           batch_normalization_1[0][0]
__________________________________________________________________________________________________
conv2d_2 (Conv2D)               (None, 24, 24, 96)   41568       activation_1[0][0]
__________________________________________________________________________________________________
batch_normalization_2 (BatchNor (None, 24, 24, 96)   384         conv2d_2[0][0]
__________________________________________________________________________________________________
activation_2 (Activation)       (None, 24, 24, 96)   0           batch_normalization_2[0][0]
__________________________________________________________________________________________________
conv2d_3 (Conv2D)               (None, 24, 24, 96)   83040       activation_2[0][0]
__________________________________________________________________________________________________
batch_normalization_3 (BatchNor (None, 24, 24, 96)   384         conv2d_3[0][0]
__________________________________________________________________________________________________
activation_3 (Activation)       (None, 24, 24, 96)   0           batch_normalization_3[0][0]
__________________________________________________________________________________________________
conv2d_4 (Conv2D)               (None, 24, 24, 96)   83040       activation_3[0][0]
__________________________________________________________________________________________________
batch_normalization_4 (BatchNor (None, 24, 24, 96)   384         conv2d_4[0][0]
__________________________________________________________________________________________________
activation_4 (Activation)       (None, 24, 24, 96)   0           batch_normalization_4[0][0]
__________________________________________________________________________________________________
conv2d_5 (Conv2D)               (None, 24, 24, 96)   83040       activation_4[0][0]
__________________________________________________________________________________________________
batch_normalization_5 (BatchNor (None, 24, 24, 96)   384         conv2d_5[0][0]
__________________________________________________________________________________________________
activation_5 (Activation)       (None, 24, 24, 96)   0           batch_normalization_5[0][0]
__________________________________________________________________________________________________
conv2d_6 (Conv2D)               (None, 24, 24, 96)   83040       activation_5[0][0]
__________________________________________________________________________________________________
batch_normalization_6 (BatchNor (None, 24, 24, 96)   384         conv2d_6[0][0]
__________________________________________________________________________________________________
activation_6 (Activation)       (None, 24, 24, 96)   0           batch_normalization_6[0][0]
__________________________________________________________________________________________________
conv2d_7 (Conv2D)               (None, 24, 24, 96)   83040       activation_6[0][0]
__________________________________________________________________________________________________
conv2d_8 (Conv2D)               (None, 24, 24, 96)   4704        activation_1[0][0]
__________________________________________________________________________________________________
batch_normalization_7 (BatchNor (None, 24, 24, 96)   384         conv2d_7[0][0]
__________________________________________________________________________________________________
add_1 (Add)                     (None, 24, 24, 96)   0           conv2d_8[0][0]
                                                                 batch_normalization_7[0][0]
__________________________________________________________________________________________________
conv2d_9 (Conv2D)               (None, 12, 12, 192)  166080      add_1[0][0]
__________________________________________________________________________________________________
batch_normalization_8 (BatchNor (None, 12, 12, 192)  768         conv2d_9[0][0]
__________________________________________________________________________________________________
activation_7 (Activation)       (None, 12, 12, 192)  0           batch_normalization_8[0][0]
__________________________________________________________________________________________________
conv2d_10 (Conv2D)              (None, 12, 12, 192)  331968      activation_7[0][0]
__________________________________________________________________________________________________
batch_normalization_9 (BatchNor (None, 12, 12, 192)  768         conv2d_10[0][0]
__________________________________________________________________________________________________
activation_8 (Activation)       (None, 12, 12, 192)  0           batch_normalization_9[0][0]
__________________________________________________________________________________________________
conv2d_11 (Conv2D)              (None, 12, 12, 192)  331968      activation_8[0][0]
__________________________________________________________________________________________________
batch_normalization_10 (BatchNo (None, 12, 12, 192)  768         conv2d_11[0][0]
__________________________________________________________________________________________________
activation_9 (Activation)       (None, 12, 12, 192)  0           batch_normalization_10[0][0]
__________________________________________________________________________________________________
conv2d_12 (Conv2D)              (None, 12, 12, 192)  331968      activation_9[0][0]
__________________________________________________________________________________________________
batch_normalization_11 (BatchNo (None, 12, 12, 192)  768         conv2d_12[0][0]
__________________________________________________________________________________________________
activation_10 (Activation)      (None, 12, 12, 192)  0           batch_normalization_11[0][0]
__________________________________________________________________________________________________
conv2d_13 (Conv2D)              (None, 12, 12, 192)  331968      activation_10[0][0]
__________________________________________________________________________________________________
batch_normalization_12 (BatchNo (None, 12, 12, 192)  768         conv2d_13[0][0]
__________________________________________________________________________________________________
activation_11 (Activation)      (None, 12, 12, 192)  0           batch_normalization_12[0][0]
__________________________________________________________________________________________________
conv2d_14 (Conv2D)              (None, 12, 12, 192)  331968      activation_11[0][0]
__________________________________________________________________________________________________
batch_normalization_13 (BatchNo (None, 12, 12, 192)  768         conv2d_14[0][0]
__________________________________________________________________________________________________
activation_12 (Activation)      (None, 12, 12, 192)  0           batch_normalization_13[0][0]
__________________________________________________________________________________________________
conv2d_15 (Conv2D)              (None, 12, 12, 192)  331968      activation_12[0][0]
__________________________________________________________________________________________________
batch_normalization_14 (BatchNo (None, 12, 12, 192)  768         conv2d_15[0][0]
__________________________________________________________________________________________________
activation_13 (Activation)      (None, 12, 12, 192)  0           batch_normalization_14[0][0]
__________________________________________________________________________________________________
conv2d_16 (Conv2D)              (None, 12, 12, 192)  331968      activation_13[0][0]
__________________________________________________________________________________________________
conv2d_17 (Conv2D)              (None, 12, 12, 192)  18624       add_1[0][0]
__________________________________________________________________________________________________
batch_normalization_15 (BatchNo (None, 12, 12, 192)  768         conv2d_16[0][0]
__________________________________________________________________________________________________
add_2 (Add)                     (None, 12, 12, 192)  0           conv2d_17[0][0]
                                                                 batch_normalization_15[0][0]
__________________________________________________________________________________________________
conv2d_18 (Conv2D)              (None, 6, 6, 384)    663936      add_2[0][0]
__________________________________________________________________________________________________
batch_normalization_16 (BatchNo (None, 6, 6, 384)    1536        conv2d_18[0][0]
__________________________________________________________________________________________________
activation_14 (Activation)      (None, 6, 6, 384)    0           batch_normalization_16[0][0]
__________________________________________________________________________________________________
conv2d_19 (Conv2D)              (None, 6, 6, 384)    1327488     activation_14[0][0]
__________________________________________________________________________________________________
batch_normalization_17 (BatchNo (None, 6, 6, 384)    1536        conv2d_19[0][0]
__________________________________________________________________________________________________
activation_15 (Activation)      (None, 6, 6, 384)    0           batch_normalization_17[0][0]
__________________________________________________________________________________________________
conv2d_20 (Conv2D)              (None, 6, 6, 384)    1327488     activation_15[0][0]
__________________________________________________________________________________________________
batch_normalization_18 (BatchNo (None, 6, 6, 384)    1536        conv2d_20[0][0]
__________________________________________________________________________________________________
activation_16 (Activation)      (None, 6, 6, 384)    0           batch_normalization_18[0][0]
__________________________________________________________________________________________________
conv2d_21 (Conv2D)              (None, 6, 6, 384)    1327488     activation_16[0][0]
__________________________________________________________________________________________________
batch_normalization_19 (BatchNo (None, 6, 6, 384)    1536        conv2d_21[0][0]
__________________________________________________________________________________________________
activation_17 (Activation)      (None, 6, 6, 384)    0           batch_normalization_19[0][0]
__________________________________________________________________________________________________
conv2d_22 (Conv2D)              (None, 6, 6, 384)    1327488     activation_17[0][0]
__________________________________________________________________________________________________
batch_normalization_20 (BatchNo (None, 6, 6, 384)    1536        conv2d_22[0][0]
__________________________________________________________________________________________________
activation_18 (Activation)      (None, 6, 6, 384)    0           batch_normalization_20[0][0]
__________________________________________________________________________________________________
conv2d_23 (Conv2D)              (None, 6, 6, 384)    1327488     activation_18[0][0]
__________________________________________________________________________________________________
conv2d_24 (Conv2D)              (None, 6, 6, 384)    74112       add_2[0][0]
__________________________________________________________________________________________________
batch_normalization_21 (BatchNo (None, 6, 6, 384)    1536        conv2d_23[0][0]
__________________________________________________________________________________________________
add_3 (Add)                     (None, 6, 6, 384)    0           conv2d_24[0][0]
                                                                 batch_normalization_21[0][0]
__________________________________________________________________________________________________
batch_normalization_22 (BatchNo (None, 6, 6, 384)    1536        add_3[0][0]
__________________________________________________________________________________________________
activation_19 (Activation)      (None, 6, 6, 384)    0           batch_normalization_22[0][0]
__________________________________________________________________________________________________
input_2 (InputLayer)            (None, 1)            0
__________________________________________________________________________________________________
global_average_pooling2d_1 (Glo (None, 384)          0           activation_19[0][0]
__________________________________________________________________________________________________
batch_normalization_23 (BatchNo (None, 1)            4           input_2[0][0]
__________________________________________________________________________________________________
concatenate_1 (Concatenate)     (None, 385)          0           global_average_pooling2d_1[0][0]
                                                                 batch_normalization_23[0][0]
__________________________________________________________________________________________________
dense_1 (Dense)                 (None, 4212)         1625832     concatenate_1[0][0]
==================================================================================================
Total params: 11,991,148
Trainable params: 11,981,450
Non-trainable params: 9,698
__________________________________________________________________________________________________
Epoch 1/200
3971/3970 [==============================] - 1301s 328ms/step - loss: 1.3707 - acc: 0.8286 - val_loss: 1.0827 - val_acc: 0.8414
…
