…
__________________________________________________________________________________________________
add_43 (Add)                    (None, 128, 128, 128 0           batch_normalization_88[0][0]
                                                                 batch_normalization_90[0][0]
__________________________________________________________________________________________________
activation_84 (Activation)      (None, 128, 128, 128 0           add_43[0][0]
__________________________________________________________________________________________________
conv2d_98 (Conv2D)              (None, 64, 64, 64)   73728       activation_84[0][0]
__________________________________________________________________________________________________
batch_normalization_92 (BatchNo (None, 64, 64, 64)   256         conv2d_98[0][0]
__________________________________________________________________________________________________
activation_85 (Activation)      (None, 64, 64, 64)   0           batch_normalization_92[0][0]
__________________________________________________________________________________________________
conv2d_97 (Conv2D)              (None, 64, 64, 64)   8192        activation_84[0][0]
__________________________________________________________________________________________________
conv2d_99 (Conv2D)              (None, 64, 64, 64)   36864       activation_85[0][0]
__________________________________________________________________________________________________
batch_normalization_91 (BatchNo (None, 64, 64, 64)   256         conv2d_97[0][0]
__________________________________________________________________________________________________
batch_normalization_93 (BatchNo (None, 64, 64, 64)   256         conv2d_99[0][0]
__________________________________________________________________________________________________
add_44 (Add)                    (None, 64, 64, 64)   0           batch_normalization_91[0][0]
                                                                 batch_normalization_93[0][0]
__________________________________________________________________________________________________
activation_86 (Activation)      (None, 64, 64, 64)   0           add_44[0][0]
__________________________________________________________________________________________________
conv2d_100 (Conv2D)             (None, 64, 64, 64)   36864       activation_86[0][0]
__________________________________________________________________________________________________
batch_normalization_94 (BatchNo (None, 64, 64, 64)   256         conv2d_100[0][0]
__________________________________________________________________________________________________
activation_87 (Activation)      (None, 64, 64, 64)   0           batch_normalization_94[0][0]
__________________________________________________________________________________________________
conv2d_101 (Conv2D)             (None, 64, 64, 64)   36864       activation_87[0][0]
__________________________________________________________________________________________________
batch_normalization_95 (BatchNo (None, 64, 64, 64)   256         conv2d_101[0][0]
__________________________________________________________________________________________________
add_45 (Add)                    (None, 64, 64, 64)   0           activation_86[0][0]
                                                                 batch_normalization_95[0][0]
__________________________________________________________________________________________________
activation_88 (Activation)      (None, 64, 64, 64)   0           add_45[0][0]
__________________________________________________________________________________________________
conv2d_103 (Conv2D)             (None, 32, 32, 64)   36864       activation_88[0][0]
__________________________________________________________________________________________________
batch_normalization_97 (BatchNo (None, 32, 32, 64)   256         conv2d_103[0][0]
__________________________________________________________________________________________________
activation_89 (Activation)      (None, 32, 32, 64)   0           batch_normalization_97[0][0]
__________________________________________________________________________________________________
conv2d_102 (Conv2D)             (None, 32, 32, 64)   4096        activation_88[0][0]
__________________________________________________________________________________________________
conv2d_104 (Conv2D)             (None, 32, 32, 64)   36864       activation_89[0][0]
__________________________________________________________________________________________________
batch_normalization_96 (BatchNo (None, 32, 32, 64)   256         conv2d_102[0][0]
__________________________________________________________________________________________________
batch_normalization_98 (BatchNo (None, 32, 32, 64)   256         conv2d_104[0][0]
__________________________________________________________________________________________________
add_46 (Add)                    (None, 32, 32, 64)   0           batch_normalization_96[0][0]
                                                                 batch_normalization_98[0][0]
__________________________________________________________________________________________________
activation_90 (Activation)      (None, 32, 32, 64)   0           add_46[0][0]
__________________________________________________________________________________________________
conv2d_105 (Conv2D)             (None, 32, 32, 64)   36864       activation_90[0][0]
__________________________________________________________________________________________________
batch_normalization_99 (BatchNo (None, 32, 32, 64)   256         conv2d_105[0][0]
__________________________________________________________________________________________________
activation_91 (Activation)      (None, 32, 32, 64)   0           batch_normalization_99[0][0]
__________________________________________________________________________________________________
conv2d_106 (Conv2D)             (None, 32, 32, 64)   36864       activation_91[0][0]
__________________________________________________________________________________________________
batch_normalization_100 (BatchN (None, 32, 32, 64)   256         conv2d_106[0][0]
__________________________________________________________________________________________________
add_47 (Add)                    (None, 32, 32, 64)   0           activation_90[0][0]
                                                                 batch_normalization_100[0][0]
__________________________________________________________________________________________________
activation_92 (Activation)      (None, 32, 32, 64)   0           add_47[0][0]
__________________________________________________________________________________________________
conv2d_108 (Conv2D)             (None, 16, 16, 96)   55296       activation_92[0][0]
__________________________________________________________________________________________________
batch_normalization_102 (BatchN (None, 16, 16, 96)   384         conv2d_108[0][0]
__________________________________________________________________________________________________
activation_93 (Activation)      (None, 16, 16, 96)   0           batch_normalization_102[0][0]
__________________________________________________________________________________________________
conv2d_107 (Conv2D)             (None, 16, 16, 96)   6144        activation_92[0][0]
__________________________________________________________________________________________________
conv2d_109 (Conv2D)             (None, 16, 16, 96)   82944       activation_93[0][0]
__________________________________________________________________________________________________
batch_normalization_101 (BatchN (None, 16, 16, 96)   384         conv2d_107[0][0]
__________________________________________________________________________________________________
batch_normalization_103 (BatchN (None, 16, 16, 96)   384         conv2d_109[0][0]
__________________________________________________________________________________________________
add_48 (Add)                    (None, 16, 16, 96)   0           batch_normalization_101[0][0]
                                                                 batch_normalization_103[0][0]
__________________________________________________________________________________________________
activation_94 (Activation)      (None, 16, 16, 96)   0           add_48[0][0]
__________________________________________________________________________________________________
conv2d_110 (Conv2D)             (None, 16, 16, 96)   82944       activation_94[0][0]
__________________________________________________________________________________________________
batch_normalization_104 (BatchN (None, 16, 16, 96)   384         conv2d_110[0][0]
__________________________________________________________________________________________________
activation_95 (Activation)      (None, 16, 16, 96)   0           batch_normalization_104[0][0]
__________________________________________________________________________________________________
conv2d_111 (Conv2D)             (None, 16, 16, 96)   82944       activation_95[0][0]
__________________________________________________________________________________________________
batch_normalization_105 (BatchN (None, 16, 16, 96)   384         conv2d_111[0][0]
__________________________________________________________________________________________________
add_49 (Add)                    (None, 16, 16, 96)   0           activation_94[0][0]
                                                                 batch_normalization_105[0][0]
__________________________________________________________________________________________________
activation_96 (Activation)      (None, 16, 16, 96)   0           add_49[0][0]
__________________________________________________________________________________________________
conv2d_113 (Conv2D)             (None, 8, 8, 128)    110592      activation_96[0][0]
__________________________________________________________________________________________________
batch_normalization_107 (BatchN (None, 8, 8, 128)    512         conv2d_113[0][0]
__________________________________________________________________________________________________
activation_97 (Activation)      (None, 8, 8, 128)    0           batch_normalization_107[0][0]
__________________________________________________________________________________________________
conv2d_112 (Conv2D)             (None, 8, 8, 128)    12288       activation_96[0][0]
__________________________________________________________________________________________________
conv2d_114 (Conv2D)             (None, 8, 8, 128)    147456      activation_97[0][0]
__________________________________________________________________________________________________
batch_normalization_106 (BatchN (None, 8, 8, 128)    512         conv2d_112[0][0]
__________________________________________________________________________________________________
batch_normalization_108 (BatchN (None, 8, 8, 128)    512         conv2d_114[0][0]
__________________________________________________________________________________________________
add_50 (Add)                    (None, 8, 8, 128)    0           batch_normalization_106[0][0]
                                                                 batch_normalization_108[0][0]
__________________________________________________________________________________________________
activation_98 (Activation)      (None, 8, 8, 128)    0           add_50[0][0]
__________________________________________________________________________________________________
conv2d_115 (Conv2D)             (None, 8, 8, 128)    147456      activation_98[0][0]
__________________________________________________________________________________________________
batch_normalization_109 (BatchN (None, 8, 8, 128)    512         conv2d_115[0][0]
__________________________________________________________________________________________________
activation_99 (Activation)      (None, 8, 8, 128)    0           batch_normalization_109[0][0]
__________________________________________________________________________________________________
conv2d_116 (Conv2D)             (None, 8, 8, 128)    147456      activation_99[0][0]
__________________________________________________________________________________________________
batch_normalization_110 (BatchN (None, 8, 8, 128)    512         conv2d_116[0][0]
__________________________________________________________________________________________________
add_51 (Add)                    (None, 8, 8, 128)    0           activation_98[0][0]
                                                                 batch_normalization_110[0][0]
__________________________________________________________________________________________________
activation_100 (Activation)     (None, 8, 8, 128)    0           add_51[0][0]
__________________________________________________________________________________________________
conv2d_118 (Conv2D)             (None, 4, 4, 128)    147456      activation_100[0][0]
__________________________________________________________________________________________________
batch_normalization_112 (BatchN (None, 4, 4, 128)    512         conv2d_118[0][0]
__________________________________________________________________________________________________
activation_101 (Activation)     (None, 4, 4, 128)    0           batch_normalization_112[0][0]
__________________________________________________________________________________________________
conv2d_117 (Conv2D)             (None, 4, 4, 128)    16384       activation_100[0][0]
__________________________________________________________________________________________________
conv2d_119 (Conv2D)             (None, 4, 4, 128)    147456      activation_101[0][0]
__________________________________________________________________________________________________
batch_normalization_111 (BatchN (None, 4, 4, 128)    512         conv2d_117[0][0]
__________________________________________________________________________________________________
batch_normalization_113 (BatchN (None, 4, 4, 128)    512         conv2d_119[0][0]
__________________________________________________________________________________________________
add_52 (Add)                    (None, 4, 4, 128)    0           batch_normalization_111[0][0]
                                                                 batch_normalization_113[0][0]
__________________________________________________________________________________________________
activation_102 (Activation)     (None, 4, 4, 128)    0           add_52[0][0]
__________________________________________________________________________________________________
conv2d_120 (Conv2D)             (None, 4, 4, 128)    147456      activation_102[0][0]
__________________________________________________________________________________________________
batch_normalization_114 (BatchN (None, 4, 4, 128)    512         conv2d_120[0][0]
__________________________________________________________________________________________________
activation_103 (Activation)     (None, 4, 4, 128)    0           batch_normalization_114[0][0]
__________________________________________________________________________________________________
conv2d_121 (Conv2D)             (None, 4, 4, 128)    147456      activation_103[0][0]
__________________________________________________________________________________________________
batch_normalization_115 (BatchN (None, 4, 4, 128)    512         conv2d_121[0][0]
__________________________________________________________________________________________________
add_53 (Add)                    (None, 4, 4, 128)    0           activation_102[0][0]
                                                                 batch_normalization_115[0][0]
__________________________________________________________________________________________________
activation_104 (Activation)     (None, 4, 4, 128)    0           add_53[0][0]
__________________________________________________________________________________________________
conv2d_122 (Conv2D)             (None, 4, 4, 128)    147456      activation_104[0][0]
__________________________________________________________________________________________________
batch_normalization_116 (BatchN (None, 4, 4, 128)    512         conv2d_122[0][0]
__________________________________________________________________________________________________
activation_105 (Activation)     (None, 4, 4, 128)    0           batch_normalization_116[0][0]
__________________________________________________________________________________________________
conv2d_123 (Conv2D)             (None, 4, 4, 128)    147456      activation_105[0][0]
__________________________________________________________________________________________________
batch_normalization_117 (BatchN (None, 4, 4, 128)    512         conv2d_123[0][0]
__________________________________________________________________________________________________
add_54 (Add)                    (None, 4, 4, 128)    0           activation_104[0][0]
                                                                 batch_normalization_117[0][0]
__________________________________________________________________________________________________
activation_106 (Activation)     (None, 4, 4, 128)    0           add_54[0][0]
__________________________________________________________________________________________________
conv2d_124 (Conv2D)             (None, 4, 4, 128)    147456      activation_106[0][0]
__________________________________________________________________________________________________
batch_normalization_118 (BatchN (None, 4, 4, 128)    512         conv2d_124[0][0]
__________________________________________________________________________________________________
activation_107 (Activation)     (None, 4, 4, 128)    0           batch_normalization_118[0][0]
__________________________________________________________________________________________________
conv2d_125 (Conv2D)             (None, 4, 4, 128)    147456      activation_107[0][0]
__________________________________________________________________________________________________
batch_normalization_119 (BatchN (None, 4, 4, 128)    512         conv2d_125[0][0]
__________________________________________________________________________________________________
add_55 (Add)                    (None, 4, 4, 128)    0           activation_106[0][0]
                                                                 batch_normalization_119[0][0]
__________________________________________________________________________________________________
activation_108 (Activation)     (None, 4, 4, 128)    0           add_55[0][0]
__________________________________________________________________________________________________
conv2d_126 (Conv2D)             (None, 4, 4, 128)    147456      activation_108[0][0]
__________________________________________________________________________________________________
batch_normalization_120 (BatchN (None, 4, 4, 128)    512         conv2d_126[0][0]
__________________________________________________________________________________________________
activation_109 (Activation)     (None, 4, 4, 128)    0           batch_normalization_120[0][0]
__________________________________________________________________________________________________
conv2d_127 (Conv2D)             (None, 4, 4, 128)    147456      activation_109[0][0]
__________________________________________________________________________________________________
batch_normalization_121 (BatchN (None, 4, 4, 128)    512         conv2d_127[0][0]
__________________________________________________________________________________________________
add_56 (Add)                    (None, 4, 4, 128)    0           activation_108[0][0]
                                                                 batch_normalization_121[0][0]
__________________________________________________________________________________________________
activation_110 (Activation)     (None, 4, 4, 128)    0           add_56[0][0]
__________________________________________________________________________________________________
conv2d_128 (Conv2D)             (None, 4, 4, 128)    147456      activation_110[0][0]
__________________________________________________________________________________________________
batch_normalization_122 (BatchN (None, 4, 4, 128)    512         conv2d_128[0][0]
__________________________________________________________________________________________________
activation_111 (Activation)     (None, 4, 4, 128)    0           batch_normalization_122[0][0]
__________________________________________________________________________________________________
conv2d_129 (Conv2D)             (None, 4, 4, 128)    147456      activation_111[0][0]
__________________________________________________________________________________________________
batch_normalization_123 (BatchN (None, 4, 4, 128)    512         conv2d_129[0][0]
__________________________________________________________________________________________________
add_57 (Add)                    (None, 4, 4, 128)    0           activation_110[0][0]
                                                                 batch_normalization_123[0][0]
__________________________________________________________________________________________________
activation_112 (Activation)     (None, 4, 4, 128)    0           add_57[0][0]
__________________________________________________________________________________________________
conv2d_134 (Conv2D)             (None, 4, 4, 128)    147456      activation_112[0][0]
__________________________________________________________________________________________________
conv2d_130 (Conv2D)             (None, 8, 8, 128)    147456      activation_100[0][0]
__________________________________________________________________________________________________
batch_normalization_128 (BatchN (None, 4, 4, 128)    512         conv2d_134[0][0]
__________________________________________________________________________________________________
batch_normalization_124 (BatchN (None, 8, 8, 128)    512         conv2d_130[0][0]
__________________________________________________________________________________________________
activation_117 (Activation)     (None, 4, 4, 128)    0           batch_normalization_128[0][0]
__________________________________________________________________________________________________
activation_113 (Activation)     (None, 8, 8, 128)    0           batch_normalization_124[0][0]
__________________________________________________________________________________________________
conv2d_135 (Conv2D)             (None, 4, 4, 128)    147456      activation_117[0][0]
__________________________________________________________________________________________________
conv2d_131 (Conv2D)             (None, 8, 8, 128)    147456      activation_113[0][0]
__________________________________________________________________________________________________
batch_normalization_129 (BatchN (None, 4, 4, 128)    512         conv2d_135[0][0]
__________________________________________________________________________________________________
batch_normalization_125 (BatchN (None, 8, 8, 128)    512         conv2d_131[0][0]
__________________________________________________________________________________________________
add_60 (Add)                    (None, 4, 4, 128)    0           activation_112[0][0]
                                                                 batch_normalization_129[0][0]
__________________________________________________________________________________________________
add_58 (Add)                    (None, 8, 8, 128)    0           activation_100[0][0]
                                                                 batch_normalization_125[0][0]
__________________________________________________________________________________________________
activation_118 (Activation)     (None, 4, 4, 128)    0           add_60[0][0]
__________________________________________________________________________________________________
activation_114 (Activation)     (None, 8, 8, 128)    0           add_58[0][0]
__________________________________________________________________________________________________
conv2d_136 (Conv2D)             (None, 4, 4, 128)    147456      activation_118[0][0]
__________________________________________________________________________________________________
conv2d_132 (Conv2D)             (None, 8, 8, 128)    147456      activation_114[0][0]
__________________________________________________________________________________________________
batch_normalization_130 (BatchN (None, 4, 4, 128)    512         conv2d_136[0][0]
__________________________________________________________________________________________________
batch_normalization_126 (BatchN (None, 8, 8, 128)    512         conv2d_132[0][0]
__________________________________________________________________________________________________
activation_119 (Activation)     (None, 4, 4, 128)    0           batch_normalization_130[0][0]
__________________________________________________________________________________________________
activation_115 (Activation)     (None, 8, 8, 128)    0           batch_normalization_126[0][0]
__________________________________________________________________________________________________
conv2d_137 (Conv2D)             (None, 4, 4, 128)    147456      activation_119[0][0]
__________________________________________________________________________________________________
conv2d_133 (Conv2D)             (None, 8, 8, 128)    147456      activation_115[0][0]
__________________________________________________________________________________________________
batch_normalization_131 (BatchN (None, 4, 4, 128)    512         conv2d_137[0][0]
__________________________________________________________________________________________________
batch_normalization_127 (BatchN (None, 8, 8, 128)    512         conv2d_133[0][0]
__________________________________________________________________________________________________
add_61 (Add)                    (None, 4, 4, 128)    0           activation_118[0][0]
                                                                 batch_normalization_131[0][0]
__________________________________________________________________________________________________
add_59 (Add)                    (None, 8, 8, 128)    0           activation_114[0][0]
                                                                 batch_normalization_127[0][0]
__________________________________________________________________________________________________
activation_120 (Activation)     (None, 4, 4, 128)    0           add_61[0][0]
__________________________________________________________________________________________________
activation_116 (Activation)     (None, 8, 8, 128)    0           add_59[0][0]
__________________________________________________________________________________________________
up_sampling2d_6 (UpSampling2D)  (None, 8, 8, 128)    0           activation_120[0][0]
__________________________________________________________________________________________________
add_62 (Add)                    (None, 8, 8, 128)    0           activation_116[0][0]
                                                                 up_sampling2d_6[0][0]
__________________________________________________________________________________________________
conv2d_142 (Conv2D)             (None, 8, 8, 128)    147456      add_62[0][0]
__________________________________________________________________________________________________
conv2d_138 (Conv2D)             (None, 16, 16, 96)   82944       activation_96[0][0]
__________________________________________________________________________________________________
batch_normalization_136 (BatchN (None, 8, 8, 128)    512         conv2d_142[0][0]
__________________________________________________________________________________________________
batch_normalization_132 (BatchN (None, 16, 16, 96)   384         conv2d_138[0][0]
__________________________________________________________________________________________________
activation_125 (Activation)     (None, 8, 8, 128)    0           batch_normalization_136[0][0]
__________________________________________________________________________________________________
activation_121 (Activation)     (None, 16, 16, 96)   0           batch_normalization_132[0][0]
__________________________________________________________________________________________________
conv2d_143 (Conv2D)             (None, 8, 8, 128)    147456      activation_125[0][0]
__________________________________________________________________________________________________
conv2d_139 (Conv2D)             (None, 16, 16, 96)   82944       activation_121[0][0]
__________________________________________________________________________________________________
batch_normalization_137 (BatchN (None, 8, 8, 128)    512         conv2d_143[0][0]
__________________________________________________________________________________________________
batch_normalization_133 (BatchN (None, 16, 16, 96)   384         conv2d_139[0][0]
__________________________________________________________________________________________________
add_65 (Add)                    (None, 8, 8, 128)    0           add_62[0][0]
                                                                 batch_normalization_137[0][0]
__________________________________________________________________________________________________
add_63 (Add)                    (None, 16, 16, 96)   0           activation_96[0][0]
                                                                 batch_normalization_133[0][0]
__________________________________________________________________________________________________
activation_126 (Activation)     (None, 8, 8, 128)    0           add_65[0][0]
__________________________________________________________________________________________________
activation_122 (Activation)     (None, 16, 16, 96)   0           add_63[0][0]
__________________________________________________________________________________________________
conv2d_145 (Conv2D)             (None, 8, 8, 96)     110592      activation_126[0][0]
__________________________________________________________________________________________________
conv2d_140 (Conv2D)             (None, 16, 16, 96)   82944       activation_122[0][0]
__________________________________________________________________________________________________
batch_normalization_139 (BatchN (None, 8, 8, 96)     384         conv2d_145[0][0]
__________________________________________________________________________________________________
batch_normalization_134 (BatchN (None, 16, 16, 96)   384         conv2d_140[0][0]
__________________________________________________________________________________________________
activation_127 (Activation)     (None, 8, 8, 96)     0           batch_normalization_139[0][0]
__________________________________________________________________________________________________
activation_123 (Activation)     (None, 16, 16, 96)   0           batch_normalization_134[0][0]
__________________________________________________________________________________________________
conv2d_144 (Conv2D)             (None, 8, 8, 96)     12288       activation_126[0][0]
__________________________________________________________________________________________________
conv2d_146 (Conv2D)             (None, 8, 8, 96)     82944       activation_127[0][0]
__________________________________________________________________________________________________
conv2d_141 (Conv2D)             (None, 16, 16, 96)   82944       activation_123[0][0]
__________________________________________________________________________________________________
batch_normalization_138 (BatchN (None, 8, 8, 96)     384         conv2d_144[0][0]
__________________________________________________________________________________________________
batch_normalization_140 (BatchN (None, 8, 8, 96)     384         conv2d_146[0][0]
__________________________________________________________________________________________________
batch_normalization_135 (BatchN (None, 16, 16, 96)   384         conv2d_141[0][0]
__________________________________________________________________________________________________
add_66 (Add)                    (None, 8, 8, 96)     0           batch_normalization_138[0][0]
                                                                 batch_normalization_140[0][0]
__________________________________________________________________________________________________
add_64 (Add)                    (None, 16, 16, 96)   0           activation_122[0][0]
                                                                 batch_normalization_135[0][0]
__________________________________________________________________________________________________
activation_128 (Activation)     (None, 8, 8, 96)     0           add_66[0][0]
__________________________________________________________________________________________________
activation_124 (Activation)     (None, 16, 16, 96)   0           add_64[0][0]
__________________________________________________________________________________________________
up_sampling2d_7 (UpSampling2D)  (None, 16, 16, 96)   0           activation_128[0][0]
__________________________________________________________________________________________________
add_67 (Add)                    (None, 16, 16, 96)   0           activation_124[0][0]
                                                                 up_sampling2d_7[0][0]
__________________________________________________________________________________________________
conv2d_151 (Conv2D)             (None, 16, 16, 96)   82944       add_67[0][0]
__________________________________________________________________________________________________
conv2d_147 (Conv2D)             (None, 32, 32, 64)   36864       activation_92[0][0]
__________________________________________________________________________________________________
batch_normalization_145 (BatchN (None, 16, 16, 96)   384         conv2d_151[0][0]
__________________________________________________________________________________________________
batch_normalization_141 (BatchN (None, 32, 32, 64)   256         conv2d_147[0][0]
__________________________________________________________________________________________________
activation_133 (Activation)     (None, 16, 16, 96)   0           batch_normalization_145[0][0]
__________________________________________________________________________________________________
activation_129 (Activation)     (None, 32, 32, 64)   0           batch_normalization_141[0][0]
__________________________________________________________________________________________________
conv2d_152 (Conv2D)             (None, 16, 16, 96)   82944       activation_133[0][0]
__________________________________________________________________________________________________
conv2d_148 (Conv2D)             (None, 32, 32, 64)   36864       activation_129[0][0]
__________________________________________________________________________________________________
batch_normalization_146 (BatchN (None, 16, 16, 96)   384         conv2d_152[0][0]
__________________________________________________________________________________________________
batch_normalization_142 (BatchN (None, 32, 32, 64)   256         conv2d_148[0][0]
__________________________________________________________________________________________________
add_70 (Add)                    (None, 16, 16, 96)   0           add_67[0][0]
                                                                 batch_normalization_146[0][0]
__________________________________________________________________________________________________
add_68 (Add)                    (None, 32, 32, 64)   0           activation_92[0][0]
                                                                 batch_normalization_142[0][0]
__________________________________________________________________________________________________
activation_134 (Activation)     (None, 16, 16, 96)   0           add_70[0][0]
__________________________________________________________________________________________________
activation_130 (Activation)     (None, 32, 32, 64)   0           add_68[0][0]
__________________________________________________________________________________________________
conv2d_154 (Conv2D)             (None, 16, 16, 64)   55296       activation_134[0][0]
__________________________________________________________________________________________________
conv2d_149 (Conv2D)             (None, 32, 32, 64)   36864       activation_130[0][0]
__________________________________________________________________________________________________
batch_normalization_148 (BatchN (None, 16, 16, 64)   256         conv2d_154[0][0]
__________________________________________________________________________________________________
batch_normalization_143 (BatchN (None, 32, 32, 64)   256         conv2d_149[0][0]
__________________________________________________________________________________________________
activation_135 (Activation)     (None, 16, 16, 64)   0           batch_normalization_148[0][0]
__________________________________________________________________________________________________
activation_131 (Activation)     (None, 32, 32, 64)   0           batch_normalization_143[0][0]
__________________________________________________________________________________________________
conv2d_153 (Conv2D)             (None, 16, 16, 64)   6144        activation_134[0][0]
__________________________________________________________________________________________________
conv2d_155 (Conv2D)             (None, 16, 16, 64)   36864       activation_135[0][0]
__________________________________________________________________________________________________
conv2d_150 (Conv2D)             (None, 32, 32, 64)   36864       activation_131[0][0]
__________________________________________________________________________________________________
batch_normalization_147 (BatchN (None, 16, 16, 64)   256         conv2d_153[0][0]
__________________________________________________________________________________________________
batch_normalization_149 (BatchN (None, 16, 16, 64)   256         conv2d_155[0][0]
__________________________________________________________________________________________________
batch_normalization_144 (BatchN (None, 32, 32, 64)   256         conv2d_150[0][0]
__________________________________________________________________________________________________
add_71 (Add)                    (None, 16, 16, 64)   0           batch_normalization_147[0][0]
                                                                 batch_normalization_149[0][0]
__________________________________________________________________________________________________
add_69 (Add)                    (None, 32, 32, 64)   0           activation_130[0][0]
                                                                 batch_normalization_144[0][0]
__________________________________________________________________________________________________
activation_136 (Activation)     (None, 16, 16, 64)   0           add_71[0][0]
__________________________________________________________________________________________________
activation_132 (Activation)     (None, 32, 32, 64)   0           add_69[0][0]
__________________________________________________________________________________________________
up_sampling2d_8 (UpSampling2D)  (None, 32, 32, 64)   0           activation_136[0][0]
__________________________________________________________________________________________________
add_72 (Add)                    (None, 32, 32, 64)   0           activation_132[0][0]
                                                                 up_sampling2d_8[0][0]
__________________________________________________________________________________________________
conv2d_160 (Conv2D)             (None, 32, 32, 64)   36864       add_72[0][0]
__________________________________________________________________________________________________
conv2d_156 (Conv2D)             (None, 64, 64, 64)   36864       activation_88[0][0]
__________________________________________________________________________________________________
batch_normalization_154 (BatchN (None, 32, 32, 64)   256         conv2d_160[0][0]
__________________________________________________________________________________________________
batch_normalization_150 (BatchN (None, 64, 64, 64)   256         conv2d_156[0][0]
__________________________________________________________________________________________________
activation_141 (Activation)     (None, 32, 32, 64)   0           batch_normalization_154[0][0]
__________________________________________________________________________________________________
activation_137 (Activation)     (None, 64, 64, 64)   0           batch_normalization_150[0][0]
__________________________________________________________________________________________________
conv2d_161 (Conv2D)             (None, 32, 32, 64)   36864       activation_141[0][0]
__________________________________________________________________________________________________
conv2d_157 (Conv2D)             (None, 64, 64, 64)   36864       activation_137[0][0]
__________________________________________________________________________________________________
batch_normalization_155 (BatchN (None, 32, 32, 64)   256         conv2d_161[0][0]
__________________________________________________________________________________________________
batch_normalization_151 (BatchN (None, 64, 64, 64)   256         conv2d_157[0][0]
__________________________________________________________________________________________________
add_75 (Add)                    (None, 32, 32, 64)   0           add_72[0][0]
                                                                 batch_normalization_155[0][0]
__________________________________________________________________________________________________
add_73 (Add)                    (None, 64, 64, 64)   0           activation_88[0][0]
                                                                 batch_normalization_151[0][0]
__________________________________________________________________________________________________
activation_142 (Activation)     (None, 32, 32, 64)   0           add_75[0][0]
__________________________________________________________________________________________________
activation_138 (Activation)     (None, 64, 64, 64)   0           add_73[0][0]
__________________________________________________________________________________________________
conv2d_162 (Conv2D)             (None, 32, 32, 64)   36864       activation_142[0][0]
__________________________________________________________________________________________________
conv2d_158 (Conv2D)             (None, 64, 64, 64)   36864       activation_138[0][0]
__________________________________________________________________________________________________
batch_normalization_156 (BatchN (None, 32, 32, 64)   256         conv2d_162[0][0]
__________________________________________________________________________________________________
batch_normalization_152 (BatchN (None, 64, 64, 64)   256         conv2d_158[0][0]
__________________________________________________________________________________________________
activation_143 (Activation)     (None, 32, 32, 64)   0           batch_normalization_156[0][0]
__________________________________________________________________________________________________
activation_139 (Activation)     (None, 64, 64, 64)   0           batch_normalization_152[0][0]
__________________________________________________________________________________________________
conv2d_163 (Conv2D)             (None, 32, 32, 64)   36864       activation_143[0][0]
__________________________________________________________________________________________________
conv2d_159 (Conv2D)             (None, 64, 64, 64)   36864       activation_139[0][0]
__________________________________________________________________________________________________
batch_normalization_157 (BatchN (None, 32, 32, 64)   256         conv2d_163[0][0]
__________________________________________________________________________________________________
batch_normalization_153 (BatchN (None, 64, 64, 64)   256         conv2d_159[0][0]
__________________________________________________________________________________________________
add_76 (Add)                    (None, 32, 32, 64)   0           activation_142[0][0]
                                                                 batch_normalization_157[0][0]
__________________________________________________________________________________________________
add_74 (Add)                    (None, 64, 64, 64)   0           activation_138[0][0]
                                                                 batch_normalization_153[0][0]
__________________________________________________________________________________________________
activation_144 (Activation)     (None, 32, 32, 64)   0           add_76[0][0]
__________________________________________________________________________________________________
activation_140 (Activation)     (None, 64, 64, 64)   0           add_74[0][0]
__________________________________________________________________________________________________
up_sampling2d_9 (UpSampling2D)  (None, 64, 64, 64)   0           activation_144[0][0]
__________________________________________________________________________________________________
add_77 (Add)                    (None, 64, 64, 64)   0           activation_140[0][0]
                                                                 up_sampling2d_9[0][0]
__________________________________________________________________________________________________
conv2d_169 (Conv2D)             (None, 64, 64, 64)   36864       add_77[0][0]
__________________________________________________________________________________________________
conv2d_165 (Conv2D)             (None, 128, 128, 64) 73728       activation_84[0][0]
__________________________________________________________________________________________________
batch_normalization_163 (BatchN (None, 64, 64, 64)   256         conv2d_169[0][0]
__________________________________________________________________________________________________
batch_normalization_159 (BatchN (None, 128, 128, 64) 256         conv2d_165[0][0]
__________________________________________________________________________________________________
activation_149 (Activation)     (None, 64, 64, 64)   0           batch_normalization_163[0][0]
__________________________________________________________________________________________________
activation_145 (Activation)     (None, 128, 128, 64) 0           batch_normalization_159[0][0]
__________________________________________________________________________________________________
conv2d_170 (Conv2D)             (None, 64, 64, 64)   36864       activation_149[0][0]
__________________________________________________________________________________________________
conv2d_164 (Conv2D)             (None, 128, 128, 64) 8192        activation_84[0][0]
__________________________________________________________________________________________________
conv2d_166 (Conv2D)             (None, 128, 128, 64) 36864       activation_145[0][0]
__________________________________________________________________________________________________
batch_normalization_164 (BatchN (None, 64, 64, 64)   256         conv2d_170[0][0]
__________________________________________________________________________________________________
batch_normalization_158 (BatchN (None, 128, 128, 64) 256         conv2d_164[0][0]
__________________________________________________________________________________________________
batch_normalization_160 (BatchN (None, 128, 128, 64) 256         conv2d_166[0][0]
__________________________________________________________________________________________________
add_80 (Add)                    (None, 64, 64, 64)   0           add_77[0][0]
                                                                 batch_normalization_164[0][0]
__________________________________________________________________________________________________
add_78 (Add)                    (None, 128, 128, 64) 0           batch_normalization_158[0][0]
                                                                 batch_normalization_160[0][0]
__________________________________________________________________________________________________
activation_150 (Activation)     (None, 64, 64, 64)   0           add_80[0][0]
__________________________________________________________________________________________________
activation_146 (Activation)     (None, 128, 128, 64) 0           add_78[0][0]
__________________________________________________________________________________________________
conv2d_171 (Conv2D)             (None, 64, 64, 64)   36864       activation_150[0][0]
__________________________________________________________________________________________________
conv2d_167 (Conv2D)             (None, 128, 128, 64) 36864       activation_146[0][0]
__________________________________________________________________________________________________
batch_normalization_165 (BatchN (None, 64, 64, 64)   256         conv2d_171[0][0]
__________________________________________________________________________________________________
batch_normalization_161 (BatchN (None, 128, 128, 64) 256         conv2d_167[0][0]
__________________________________________________________________________________________________
activation_151 (Activation)     (None, 64, 64, 64)   0           batch_normalization_165[0][0]
__________________________________________________________________________________________________
activation_147 (Activation)     (None, 128, 128, 64) 0           batch_normalization_161[0][0]
__________________________________________________________________________________________________
conv2d_172 (Conv2D)             (None, 64, 64, 64)   36864       activation_151[0][0]
__________________________________________________________________________________________________
conv2d_168 (Conv2D)             (None, 128, 128, 64) 36864       activation_147[0][0]
__________________________________________________________________________________________________
batch_normalization_166 (BatchN (None, 64, 64, 64)   256         conv2d_172[0][0]
__________________________________________________________________________________________________
batch_normalization_162 (BatchN (None, 128, 128, 64) 256         conv2d_168[0][0]
__________________________________________________________________________________________________
add_81 (Add)                    (None, 64, 64, 64)   0           activation_150[0][0]
                                                                 batch_normalization_166[0][0]
__________________________________________________________________________________________________
add_79 (Add)                    (None, 128, 128, 64) 0           activation_146[0][0]
                                                                 batch_normalization_162[0][0]
__________________________________________________________________________________________________
activation_152 (Activation)     (None, 64, 64, 64)   0           add_81[0][0]
__________________________________________________________________________________________________
activation_148 (Activation)     (None, 128, 128, 64) 0           add_79[0][0]
__________________________________________________________________________________________________
up_sampling2d_10 (UpSampling2D) (None, 128, 128, 64) 0           activation_152[0][0]
__________________________________________________________________________________________________
add_82 (Add)                    (None, 128, 128, 64) 0           activation_148[0][0]
                                                                 up_sampling2d_10[0][0]
__________________________________________________________________________________________________
conv2d_174 (Conv2D)             (None, 128, 128, 128 8320        add_82[0][0]
__________________________________________________________________________________________________
…
__________________________________________________________________________________________________
activation_154 (Activation)     (None, 128, 128, 128 0           conv2d_175[0][0]
__________________________________________________________________________________________________
activation_156 (Activation)     (None, 128, 128, 128 0           conv2d_177[0][0]
__________________________________________________________________________________________________
activation_158 (Activation)     (None, 128, 128, 128 0           conv2d_179[0][0]
__________________________________________________________________________________________________
conv2d_176 (Conv2D)             (None, 128, 128, 1)  129         activation_154[0][0]
__________________________________________________________________________________________________
conv2d_178 (Conv2D)             (None, 128, 128, 2)  258         activation_156[0][0]
__________________________________________________________________________________________________
conv2d_180 (Conv2D)             (None, 128, 128, 2)  258         activation_158[0][0]
__________________________________________________________________________________________________
activation_155 (Activation)     (None, 128, 128, 1)  0           conv2d_176[0][0]
__________________________________________________________________________________________________
activation_157 (Activation)     (None, 128, 128, 2)  0           conv2d_178[0][0]
__________________________________________________________________________________________________
activation_159 (Activation)     (None, 128, 128, 2)  0           conv2d_180[0][0]
__________________________________________________________________________________________________
concatenate_2 (Concatenate)     (None, 128, 128, 5)  0           activation_155[0][0]
                                                                 activation_157[0][0]
                                                                 activation_159[0][0]
==================================================================================================
Total params: 6,864,389
Trainable params: 6,848,901
Non-trainable params: 15,488
__________________________________________________________________________________________________
…
